saved_models/model1.npy (npy, 2840 bytes, 1 tensors)

array f8 [113, 3]
000000 57 b3 d2 e9 be 1b 2a c0 2c 47 67 aa 71 7a 29 c0
       -13.054190928430826 -12.73914844999998
000010 f3 ff ff ff ff ff 28 c0 c2 53 8e 28 d8 4d 17 c0
       -12.499999999999977 -5.826019891440355
000020 67 de 8c 15 dd 7d 03 c0 48 cf 22 5e f7 c5 fa 3f
       -2.4364568408598646 1.673331611364988
000030 35 e4 04 81 63 9d 1e 40 a0 08 df f2 f1 ff 26 40
       7.65369989006381 11.499892797208588
000040 dd cb 78 73 00 e6 20 40 f0 b5 b2 e6 d4 d3 20 40
       8.44922219132962 8.413733681979437
000050 78 8e 56 05 3e d7 28 40 11 62 5c 44 3d ae 20 40
       12.420395056549054 8.340311180379134
000060 92 54 e4 3b f1 ad 25 40 ca 49 ce 0a d0 fb 28 40
       10.839731094000204 12.491821611100836
000070 14 db 0f 12 e4 ec 21 40 21 a0 da e2 b3 0c 21 40
       8.962677540240783 8.524809922397312
000080 20 6c 39 f0 d0 ff 28 40 46 06 47 86 67 d1 20 40
       12.499640948304716 8.40899295441626
000090 90 d6 9e 27 68 0a 21 40 ea 07 db 88 fb ff 28 40
       8.520325887813016 12.499965931641743
0000a0 fe 54 c8 3a 24 f0 20 40 0c 0a 7e 5b b9 07 20 40
       8.469026410059538 8.015086039672518
0000b0 1b 31 65 e9 e9 ff 28 40 32 0c 7f 27 f2 fc 20 40
       12.499831479647176 8.494034990557427
0000c0 37 ef f6 23 d8 e8 20 40 15 42 71 1c c1 fd 28 40
       8.454774021046985 12.49561394579454
0000d0 93 a1 35 24 28 c5 20 40 29 58 02 d9 f1 14 21 40
       8.385071879908343 8.54090765145891
0000e0 06 37 3d 63 e6 e4 28 40 02 c9 60 b2 e6 bd 20 40
       12.44707021829846 8.370900701822851
0000f0 b0 07 d2 75 d6 f7 22 40 a4 a5 85 a6 04 fa 28 40
       9.48405807675212 12.488316730322204
000100 eb fc f9 11 10 a5 21 40 26 48 77 de 8b b4 21 40
       8.82238823105441 8.852629615841646
000110 0a 06 c5 25 1a 97 26 40 6e a8 25 dc e5 57 21 40
       11.295121364880305 8.671675567242541
000120 6b 69 c6 8b f6 b2 21 40 63 b6 b7 24 14 c2 28 40
       8.849537246675672 12.379059932161175
000130 94 dd 75 0d 03 ec 20 40 c2 ea 06 5c 7f ed 21 40
       8.46096078933514 8.963862300724376
000140 f8 d3 81 d1 95 fc 26 40 b2 4a 9c e2 4f cf 1f 40
       11.493330523584504 7.952453175343793
000150 0b 3c 19 16 cf 13 21 40 86 a2 69 5f bb fe 28 40
       8.538689318256749 12.497523290295486
000160 2c 78 00 ae 84 84 03 40 9c d8 81 b8 35 11 29 c0
       2.439706191434217 -12.533612981653555
000170 5c 91 1f 62 60 f5 28 c0 16 52 12 9a 83 f5 28 c0
       -12.47925097117757 -12.479519667374046
000180 a6 19 3a f9 46 09 29 c0 4b eb cd 9d 0f 01 29 c0
       -12.518119610159214 -12.502072268854723
000190 1a 00 00 00 00 00 29 c0 dd 95 98 5d 48 47 0b c0
       -12.500000000000046 -3.4098059951963777
0001a0 40 c0 b5 2e ae 61 06 c0 8e 95 35 17 de 07 f7 bf
       -2.7976955079284664 -1.4394207865346718
0001b0 89 56 6b a2 4c f5 21 40 aa 0a c2 62 84 c7 28 40
       8.979100299456393 12.38968189829514
0001c0 3c 97 d2 f2 ca 93 20 40 f8 34 04 97 67 f1 20 40
       8.288657749373321 8.471493453277148
0001d0 d4 11 10 a3 f7 ff 28 40 ca ac cb af 84 c9 20 40
       12.49993619509852 8.393590444195429
0001e0 1a 14 e1 4e d6 0d 22 40 b3 fd ff ff ff ff 28 40
       9.027025666213422 12.499999999998954
0001f0 9f 56 13 e5 50 8e 20 40 77 cd ab 48 6d dc 20 40
       8.277960928545609 8.430521269771573
000200 88 1f 6f d0 39 6f 27 40 b5 86 be 62 ff dc 21 40
       11.717237962307777 8.931635938413232
000210 1c 82 5d 30 23 f2 20 40 f3 ff ff ff ff ff 28 40
       8.47292472020586 12.499999999999977
000220 b1 01 80 2c 81 a6 21 40 95 dc d6 b8 7a d8 20 40
       8.825204268098647 8.42281129477332
000230 dc bb ef 11 5f 6f 28 40 d4 7f de c5 33 3a 23 40
       12.21752220202864 9.613676246080935
000240 5c 11 e1 f6 6b 30 22 40 26 ea b3 11 e1 d8 28 40
       9.094573702787493 12.423592141353833
000250 c2 7d d2 b0 3c 08 23 40 11 bf 9d 09 54 63 22 40
       9.51608803338502 9.194000530725619
000260 90 b7 e7 37 d0 5b 28 40 76 f4 27 1f 20 01 23 40
       12.179322955165645 9.50219819414836
000270 2e 47 a6 7c d7 66 21 40 b4 76 49 bb 9f fe 28 40
       8.700862784669507 12.497312405317054
000280 cf 5e da d2 cb 8f 20 40 56 76 f9 91 77 04 22 40
       8.2808519259992 9.008724748327193
000290 91 b1 d9 91 1f d2 28 40 4e 0f 88 c2 1e 54 1d 40
       12.410397107910088 7.332148589662962
0002a0 01 54 ca 05 fb 9e 21 40 ce a4 bd d5 c9 3f 28 40
       8.810508900593051 12.12458675327289
0002b0 70 fc 2a d1 92 b4 03 40 91 32 a3 dd b9 83 03 40
       2.463170656322795 2.4393193545750553
0002c0 4b 55 ae 6e fd ff 26 40 be 0d 0d a5 6e eb 20 40
       11.499980410366922 8.45982852730128
0002d0 07 4c 83 e6 ab 57 1f 40 2c 43 4d 40 75 ec 28 40
       7.835616685641987 12.461832055503315
0002e0 95 2a 6b b4 88 dc 18 40 b1 2d 34 3b eb f0 17 c0
       6.215365237275042 -5.98527233606312
0002f0 b2 fa 2e 19 33 45 1c c0 ed 1f ef fc 5e f5 20 c0
       -7.067577737324131 -8.47924032610896
000300 ff e5 64 0c 00 00 29 c0 9c 0e ac f2 02 00 29 c0
       -12.500000369373991 -12.50002249098116
000310 1a 00 00 00 00 00 29 c0 25 81 c2 3c 99 05 1b c0
       -12.500000000000046 -6.7554673665729625
000320 99 a4 c7 d1 bd 7e 12 c0 1d 75 e9 f4 25 03 e3 bf
       -4.623770978746642 -0.5941343100963966
000330 11 c3 10 90 47 26 22 40 48 32 52 16 bf ff 28 40
       9.074764730497494 12.499504754575483
000340 6f d4 5d c4 30 ca 20 40 75 56 aa 2a 19 c6 22 40
       8.394903313115917 9.386910756390742
000350 eb 0e 78 ff ff ff 28 40 8c bb 99 ee e0 d4 20 40
       12.4999999841743 8.415778595224559
000360 ad e9 14 69 7e 50 21 40 6d 20 ae d9 64 6e 28 40
       8.657214435389358 12.215613176828095
000370 c5 b8 51 51 96 c6 21 40 0d 71 0e ce 1a a7 20 40
       8.887865582681465 8.326376380217448
000380 78 e3 2f 30 85 cd 28 40 75 ef 8c 7f 4f ca 20 40
       12.401406770559092 8.39513777346995
000390 57 cf c8 11 c1 b6 20 40 18 c1 fd 9f a3 d8 28 40
       8.356941753161363 12.423123359418739
0003a0 95 0a 35 cc fb 3d 21 40 37 d2 7a c7 a3 ed 20 40
       8.621061688875935 8.464140161269013
0003b0 40 05 d5 db e9 59 28 40 5f ef ab 59 03 38 20 40
       12.175612325433235 8.10940056060616
0003c0 18 0a 46 01 03 10 21 40 b0 53 c8 3a ca ff 26 40
       8.531272926139579 11.499589764551132
0003d0 7c 5b 3a 9e f7 75 1e 40 e4 5f 3e 4d 70 ae 22 40
       7.6152024005049235 9.34070054422768
0003e0 b1 f4 0b b1 81 c7 26 40 2a f8 b5 8a 3e 7b 1e 40
       11.389661343297435 7.620355765682726
0003f0 a9 29 59 87 f1 d8 21 40 bd 25 da 6d 22 c6 27 40
       8.923717717775462 11.886981423262904
000400 77 bf e4 aa 04 92 03 40 90 f6 83 1e 0b e8 02 40
       2.446297965150673 2.3633024581930115
000410 84 2b 1c 63 d1 b7 28 40 e7 90 b9 3c 95 d3 20 40
       12.359019372166365 8.413247964527228
000420 00 ed 17 98 b5 43 1e 40 1a 72 82 ff ff ff 28 40
       7.566122414074243 12.499999985383557
000430 bc 88 3d 8d 2f 4f 21 40 eb 41 23 6f 05 00 23 40
       8.65465966583394 9.500041459134954
000440 32 8c 9f a8 e0 fc 26 40 b2 96 d7 c9 d2 dc 20 40
       11.49390150973895 8.431295688216185
000450 d9 ca 59 8e 09 4f 21 40 60 96 92 a8 fe ff 28 40
       8.654369781933768 12.499989765066118
000460 bd 7b 74 66 f0 d2 20 40 a1 b5 c0 95 07 6d 02 c0
       8.41199035808483 -2.303237123435523
000470 83 00 27 70 cf 4f 14 c0 74 72 20 79 43 6e 1f c0
       -5.077939751034253 -7.85767926464597
000480 00 c1 72 84 0c 88 29 c0 ad cc f0 3c da 0a 29 c0
       -12.765720500000043 -12.521196274179909
000490 1a 00 00 00 00 00 29 c0 9a 41 1f 7f 04 19 0a c0
       -12.500000000000046 -3.262215607777944
0004a0 14 bd 17 f2 c1 1a fd bf 36 09 84 7a 91 7c bc 3f
       -1.8190326172587605 0.11127576104266698
0004b0 08 75 29 46 5a 5a 20 40 aa f4 92 62 4a f6 28 40
       8.176469986496627 12.481036262930804
0004c0 78 78 7a a2 ad ea 20 40 1a ba 94 30 83 06 22 40
       8.458355977487585 9.012719648509165
0004d0 db d6 89 73 22 28 27 40 fd 42 8d 06 2d 6b 21 40
       11.578387842727741 8.709327893012864
0004e0 7f d3 8a ed 77 e0 20 40 15 e3 9e 53 7c ff 28 40
       8.438414977261116 12.498995412011519
0004f0 54 cf c0 7c d4 05 21 40 f8 46 70 ee 93 d5 20 40
       8.511386774574625 8.417144252019611
000500 da 45 e4 19 93 4e 28 40 48 d8 3c 96 0b 8e 20 40
       12.153466042628612 8.277432150771475
000510 03 7f ff 2b 06 f0 20 40 5f fe ff ff ff ff 26 40
       8.468797087610715 11.49999999999926
000520 9e 97 f5 13 c2 a9 22 40 6e 36 d3 27 3c cd 20 40
       9.33155882237389 8.400849575550833
000530 f8 03 6f 65 3e bf 28 40 84 f3 89 3c a5 66 1d 40
       12.373522920419404 7.350239702148318
000540 73 47 29 f0 8f 22 21 40 df 6d ee ff ff ff 28 40
       8.567504410780861 12.499999997954488
000550 01 b1 fa 74 fa c7 03 40 67 58 84 9f 76 47 03 40
       2.472645677471633 2.4098942243827426
000560 2f 4f 07 10 e6 ff 28 40 c5 28 9f 63 17 c2 20 40
       12.499802113430261 8.379084695032711
000570 05 3c 26 f7 a8 49 20 40 f3 ff ff ff ff ff 28 40
       8.143867228905956 12.499999999999977
000580 d5 2a 63 3c fb 42 22 40 52 97 2f b8 4c 81 21 40
       9.130823027711282 8.752538448152027
000590 26 b9 40 1b ee ff 28 40 46 ec 9f 3f 80 b5 20 40
       12.499863483095918 8.354494083663791
0005a0 be 3e 02 b8 6f b8 22 40 48 5e d1 32 11 6f 26 40
       9.36022734668165 11.216928089196827
0005b0 87 ff c7 bd 1a bf 21 40 bc 23 18 4b 66 33 21 40
       8.873250895179593 8.600389811226584
0005c0 48 d2 c5 9d a4 7a 28 40 1e 7a 78 76 eb b0 20 40
       12.239537172697183 8.345546438414257
0005d0 bf db 19 bc 15 af 21 40 0b 95 6d 27 35 b9 25 40
       8.841962698132077 10.861733657957776
0005e0 7f 71 2e aa 96 19 1a 40 86 f9 36 02 89 a2 12 c0
       6.524988802990605 -4.658725771527662
0005f0 b2 9b c8 07 4f a8 19 c0 54 38 29 84 69 67 1c c0
       -6.414363977069046 -7.10098845006549
000600 67 85 03 00 00 00 29 c0 66 98 1f 01 00 00 29 c0
       -12.50000000040991 -12.5000000334805
000610 1a 00 00 00 00 00 29 c0 f0 9e 82 b4 32 a3 18 c0
       -12.500000000000046 -6.15937311217543
000620 f1 2c 88 0a 08 15 12 c0 e3 46 49 da ac 49 05 c0
       -4.520538487016197 -2.6609742215740524
000630 fa ae b1 20 cf f4 22 40 45 13 3f 3f d3 ef 26 40
       9.478142759027367 11.468408562135332
000640 89 a8 7b 62 06 b0 21 40 d1 8f cd f1 33 dc 21 40
       8.843798711390507 8.93008380541133
000650 ac 59 dd 9b 36 8d 28 40 63 66 30 76 a6 12 21 40
       12.275807257433222 8.536426251800725
000660 3d e5 ce ec e9 2b 21 40 fe 9d f6 e6 a9 f8 28 40
       8.585769081359667 12.485671250919946
000670 76 81 78 4f 9b a3 21 40 d4 98 20 b1 7e fb 20 40
       8.819544299564523 8.491200957516789
000680 f0 87 26 7b e9 e9 28 40 0e 0a 9e eb 43 15 1c 40
       12.456859444097034 7.020766908188774
000690 4d c3 c3 ce 3b 72 21 40 f3 ff ff ff ff ff 28 40
       8.723112546345556 12.499999999999977
0006a0 d1 d7 81 89 78 e2 03 40 5d 37 5c c3 5d b8 02 40
       2.485581468844409 2.3400225889699144
0006b0 13 28 bf 92 f3 ff 28 40 5f 71 21 43 4e 88 21 40
       12.499905191263712 8.766222093422298
0006c0 6a 4b 8c 48 f7 6f 1e 40 f1 dc fd 5f 74 f9 28 40
       7.609341748774435 12.4872159955398
0006d0 d2 52 d3 3a fe e2 20 40 6d 45 e7 ea 39 0d 22 40
       8.443345869346931 9.02583250115523
0006e0 db ad b4 fe ff ff 28 40 24 ff a2 cd 2b 92 20 40
       12.499999961429173 8.28549044241624
0006f0 18 b4 54 ce 34 e4 20 40 28 4e 50 34 90 fd 28 40
       8.445715377654821 12.495240816882031
000700 1d 34 d0 3f 23 d5 20 40 d6 06 3e 7c fc e8 20 40
       8.41628455559299 8.45505131013071
000710 a0 ad 0f 3e 53 89 27 40 4b de a6 02 81 fe 21 40
       11.768213214315267 8.997078020925207
000720 fd 64 40 95 79 31 21 40 5f 38 99 9b 0b ff 28 40
       8.596630729780822 12.498135435536993
000730 84 64 bb 08 c9 57 23 40 74 56 31 dc 87 01 21 40
       9.671455643534735 8.50298965551631
000740 5b 22 81 b5 f8 13 27 40 46 5d 1c 0b a7 19 21 40
       11.539006874097302 8.55010256501431
000750 ba 02 a0 7d 77 e4 20 40 68 18 28 00 30 e1 28 40
       8.446224141867209 12.439819340605212
000760 c6 f2 ce 53 16 e0 20 40 1f 8a f5 98 9e 29 08 c0
       8.437670344364403 -3.020322031968376
000770 b8 f3 c5 4a 6b ee 10 c0 e7 49 e9 c0 0c 1e 18 c0
       -4.232831161815675 -6.029345525969325
000780 31 57 fd 14 00 00 29 c0 e5 88 d1 00 00 00 29 c0
       -12.500000625539174 -12.500000024393055
000790 1a 00 00 00 00 00 29 c0 40 70 64 70 9c 1c 0f c0
       -12.500000000000046 -3.88897025877489
0007a0 c1 51 65 ef 50 d0 09 c0 ea eb ab e5 e7 31 e7 bf
       -3.226716871528169 -0.7248420224926779
0007b0 bd d3 17 48 da bd 22 40 ab b6 7b e1 4a b7 28 40
       9.370805981548864 12.357993170120002
0007c0 80 b7 4f 8e 4d 86 21 40 c1 87 f5 47 e4 be 20 40
       8.762310454588942 8.372835396501502
0007d0 3a aa 01 6b 2e ff 28 40 55 9e 46 44 38 22 1a 40
       12.498401016190758 6.533417765436373
0007e0 97 a5 ff 6c a8 b6 21 40 f3 0b 2f f4 ff ff 28 40
       8.856753736693276 12.499999647849085
0007f0 87 da cc 0f f8 c0 03 40 54 7a 77 71 fa 1a 02 40
       2.4692231401816715 2.2631729950510735
