saved_models/model2.npy (npy, 2840 bytes, 1 tensors)

array f8 [113, 3]
0	0xc029f9f2df07ac4e	-12.988181085287717
1	0xc0292ab18ecbe521	-12.583385908498316
2	0xc028fffffffffff3	-12.499999999999977
3	0xc0134a82fcc8142e	-4.822765302383273
4	0xc0024641d0d60c82	-2.2843052211115387
5	0xbfdb931881aa6daa	-0.4308530107752754
6	0x4017518dbca0ac06	5.829642245585097
7	0x4028ffffffe05531	12.49999999631345
8	0x402203f2fd0fa40c	9.007713230284956
9	0x40211dfff825e58c	8.558593515993174
10	0x4028d2b277624758	12.411517840144072
11	0x40211ee1b599c2b8	8.560315775889975
12	0x4020f31aa570afcb	8.474812669759464
13	0x4028ffd90726c712	12.499702666743847
14	0x4020fbd6c31bdd5a	8.491872880126426
15	0x402339f9458cb37c	9.613229916978291
16	0x4028ffff0da66cc3	12.499992777410062
17	0x40221b7d60910d8c	9.053690927225738
18	0x402123be69a835e1	8.569812108787064
19	0x4028ffff8bc713d0	12.49999653630394
20	0x4022cc0c50cbb170	9.398531460633166
21	0x402100a898d568ea	8.501286293078426
22	0x4028fffffffd36af	12.499999999675621
23	0x40213f4975798e1e	8.623607321823382
24	0x40212b770572e48b	8.584892435336107
25	0x4028fff76b5974b6	12.499934534711752
26	0x4021602a425ef548	8.687822412578171
27	0x40238a070b810f47	9.769584998611789
28	0x4026da6b11bd8697	11.426598123918025
29	0x4020bb312a33f030	8.365609473075978
30	0x4020f26449052bd4	8.473421365624667
31	0x4028ffb23806cb25	12.499406576947488
32	0x4021a934a9739eff	8.830479903568174
33	0x4020de4fa66bd097	8.43420143190478
34	0x4028f5d01b7ddc4b	12.480103358377297
35	0x40233cee6826262a	9.619006399781103
36	0x4020eba5c2e84bae	8.46024903379097
37	0x4028f1504ba872a6	12.47131573134659
38	0x4020cdc9e8839b7f	8.401931062760694
39	0x40208addb694eed2	8.271222787552151
40	0x4028cca708c5bc3b	12.399711870324714
41	0x401f9e5657d4974c	7.904626247740293
42	0x4020abd42f394da1	8.335603214020752
43	0x4028fffffe0a06a2	12.499999941562525
44	0x40054e267c3d3f08	2.6631593424025404
45	0xc0267b12cc258b17	-11.240377788145947
46	0xc02666e19475e4a1	-11.200939788237806
47	0xc0266b6726ba7ba5	-11.209771356834446
48	0xc02a24f4171cdcb5	-13.072174761079035
49	0xc02a32673be64861	-13.098443862782178
50	0xc0296fff72ff871a	-12.718745797817565
51	0xc011c7c9b0834988	-4.445105321896683
52	0xc00222f4d5d7dd50	-2.2670685488225573
53	0xbfd8457ecf7ebc75	-0.3792416597670532
54	0x4020b7807793e3f5	8.35840200119308
55	0x4028ffff716b425d	12.499995750754517
56	0x4020acbeabef7d4f	8.337392209038311
57	0x402090702d55ec1a	8.282105843294676
58	0x4028722d194f16ec	12.2230003270192
59	0x401f5e3e7866e275	7.842035180358484
60	0x40219d1a92815240	8.80684335545186
61	0x40285bb48b595d23	12.179111818941754
62	0x4020d3cde07f8e18	8.413680091448484
63	0x401fdf8cd07f7b19	7.968310601979078
64	0x4028ffff9848fe43	12.499996909056
65	0x4020fea353f198d7	8.497339843026948
66	0x4020b526f73396d6	8.353812909171591
67	0x4028ff476768ff52	12.498591643874224
68	0x4022a7fb004cad0a	9.328086861953597
69	0x4021f76ad539af9f	8.983236945430518
70	0x4028fffebd7b2378	12.499990388185083
71	0x40225ba288b8c771	9.178974411541022
72	0x402145390482f0fe	8.635200634941153
73	0x4028fff6b0340bde	12.499928957322421
74	0x4021aca879234917	8.837222848470033
75	0x402195a17da0a38e	8.792247701510657
76	0x4028fde40236ae74	12.49588019292353
77	0x4021959e97d168be	8.792225593865052
78	0x4022b78d4a0c1d84	9.358499826411169
79	0x4028ffff889efbe8	12.499996442229488
80	0x402124e554cc7afa	8.572062158547386
81	0x4020e8cddf778162	8.454695685709058
82	0x4028f95c484929f3	12.487032183581482
83	0x401f8db1774a70e6	7.888372291487235
84	0x401e97f3c38ee034	7.648390822978445
85	0x4028ffffff7d808d	12.499999984808051
86	0x40094d146c0e9d23	3.1626366083106787
87	0x4001a93c3d153dd0	2.207634427271593
88	0x40280dbc6957c281	12.026828090632309
89	0x402124380187e211	8.570739791714944
90	0x4020dd95fa7a0304	8.432784869569794
91	0x40280a63fcb16fcc	12.020294090900187
92	0x4010e2e022c42d19	4.221558135245936
93	0xc012bb8b173d51a7	-4.683147776715862
94	0xc01b955cc7e16ede	-6.895861743101447
95	0xc0210f92d3e071c6	-8.530417081020357
96	0xc02900000000001a	-12.500000000000046
97	0xc02900000021a706	-12.500000003917659
98	0xc02900000a0a2f5f	-12.500000299208919
99	0xc0121b3a63dd2f15	-4.526589928030963
100	0xbff1bd90b62bfd8f	-1.1087805858695423
101	0xbfdc3d6a037d9c5e	-0.44124842015157195
102	0x402237b7df1df6fb	9.10882470360547
103	0x4026fbdb7d078212	11.491908938566699
104	0x4020b0890f45bf9c	8.344795682205408
105	0x4020fb545f33e345	8.490878081401783
106	0x4028d3c9980ec845	12.41364741497467
107	0x4022bcf5386bf925	9.369058383159947
108	0x40223e21610e9cdb	9.121348412545947
109	0x4028ffff49e6cff8	12.4999945730451
110	0x40210096054b0272	8.50114456692356
111	0x40221d9773d68042	9.057796115812497
112	0x4028fef338a0742b	12.497949380480426
113	0x4023a54fc5e200e6	9.82287424453575
114	0x4021c740d5a8a4c2	8.889166523777366
115	0x4028fffff17018a3	12.499999566014884
116	0x4020fc426b91a4b2	8.492694245842674
117	0x4022bc562a3136bd	9.36784488535647
118	0x4028f0b40e2c423e	12.470123713400536
119	0x402294b7a0ad61bc	9.290463467755096
120	0x4020ef336f76362e	8.467189295940525
121	0x4028ffffca7d1c6c	12.499998405239431
122	0x402200b05118ef87	9.001345190328506
123	0x40225166a2ccf178	9.158986175076947
124	0x4028fce2d5cacded	12.49391811466827
125	0x4019501d50fee456	6.328236833150262
126	0x40219f180d5d4fec	8.81073037876191
127	0x40281443eeeb8a8a	12.039580789806923
128	0x40072ec38661e106	2.897833871709852
129	0x40032a0614dd4531	2.3955194120432215
130	0x40281db08afeef44	12.057987540836287
131	0x40216fa37bb60fc4	8.718044153189005
132	0x402148ebc9402b9b	8.642423905452054
133	0x4028ff4150e3d570	12.49854519635366
134	0x4021ee234d6573f6	8.965113085398098
135	0x401f1ebb23e12dbf	7.780010758036439
136	0x40256b4d7f46cc48	10.709575631515818
137	0x4020fa803b598540	8.48925958125858
138	0x4022a22bcd49025a	9.316740431940321
139	0x4026ffffbe5f5195	11.499998044143277
140	0x401fc74ffcb23139	7.944641064048761
141	0xbfaf6dfef483394c	-0.06138607725880493
142	0xc00d0c6aa119eaca	-3.6310627542528424
143	0xc01925527de03bd6	-6.286447493373052
144	0xc0290055da7fb011	-12.500655010306248
145	0xc0290075c4d7200f	-12.500898505459217
146	0xc02900000000001a	-12.500000000000046
147	0xc012c377e0b299f0	-4.690886984730682
148	0xc007634f4bb01788	-2.9234910882104863
149	0xbffa38a471787f2f	-1.6388287002991537
150	0x402106956474da68	8.512858523620892
151	0x4028fdc3be2c43a2	12.495634024527877
152	0x4020ddbb9b5b6c74	8.433071951780427
153	0x4020eac0497959d9	8.458498283446646
154	0x4028ffff8697d3fe	12.499996381791785
155	0x40214cac8f43b2bd	8.649754025472584
156	0x402129bb7d987ed8	8.581508564820453
157	0x4026ff9c32320fa6	11.499238556490877
158	0x4021014a44ac670b	8.502519746823529
159	0x40230017b69deeff	9.500180918482782
160	0x40289fb46d8f1f8e	12.311923431130506
161	0x4020d574db6f0de4	8.416907174402645
162	0x4020e8458d48e479	8.453655638835913
163	0x4028fc07b9152121	12.492246421651148
164	0x4020f881fbc3b21c	8.485366695059433
165	0x4020c6745d7291b5	8.387606544719214
166	0x4028ff74ac51100c	12.498937020202014
167	0x401c5c79c7c45918	7.090308305129177
168	0x4021f1cc74dbe14e	8.972263004151184
169	0x4028ffca22480d52	12.499589034362234
170	0x4010fc5ef8a87bbc	4.246456036837966
171	0x40038ae772ccf9b2	2.442824265365936
172	0x4027ea684a4e7fb3	11.957826921541573
173	0x4020e05ec9c26c21	8.438223175986481
174	0x401e30967831cc7d	7.547448995627858
175	0x4028fa7cb55156b6	12.4892326986113
176	0x40221ed3017ec605	9.060203596806796
177	0x401ff9f5df383c8c	7.99410198956242
178	0x4028358c9b2b31ae	12.104588364622796
179	0x40213fdd8fb5c143	8.624737254082566
180	0x402278713bf3c1f0	9.235238908296168
181	0x4028b7d75a934e23	12.359064894181818
182	0x40211ce5c8fd3470	8.556440621289056
183	0x40209e65b83ae203	8.309369809329842
184	0x4028873ddc47fa14	12.264143832956542
185	0x40212e58525226a4	8.590517590072814
186	0x401ff81b57e2bd78	7.992291806425207
187	0x40283775be8486a3	12.108320192029458
188	0x401f7cfede8b7552	7.872065999280794
189	0xbfeec2e1a93f4233	-0.9612892442328927
190	0xc015ba10630d81da	-5.431703136157433
191	0xc01bf98e1f6cbef4	-6.993706217777561
192	0xc02900000000001a	-12.500000000000046
193	0xc02900000000062d	-12.500000000002808
194	0xc02900000000001a	-12.500000000000046
195	0xc012df842ace27c1	-4.71827761538765
196	0xbffe74f1e7354c78	-1.903551009327911
197	0x3fe08124067fddf6	0.5157642485564213
198	0x4020e24c6a29941a	8.441989247870925
199	0x4028fffffffffde6	12.499999999999044
200	0x40212ec23cc77ca0	8.591325663901728
201	0x4020b91ba44bebb6	8.361539015071553
202	0x402813aad0a61318	12.038412590286995
203	0x40210d7dd29d034c	8.526350576082812
204	0x4021ef688145bfbc	8.967594184650686
205	0x4028fff60e2a90af	12.499924128242439
206	0x402103d1301da884	8.507455352421182
207	0x4021e93d2fe64f62	8.955544945587182
208	0x4028ffffffefe9fc	12.499999998127343
209	0x40163780f087acce	5.554202802926012
210	0x401e6e6981d03a6c	7.607824352583162
211	0x4028ffffffdf6df3	12.499999996208293
212	0x400ec0c4348b11a7	3.8441242318096616
213	0x40035f66ce883646	2.421582807094441
214	0x4028e3c82bb58088	12.444886556535735
215	0x4020ebe6dc7a3ef3	8.460745706484408
216	0x401bf7932ad46c32	6.991772336211442
217	0x4028ffff8dcde566	12.499996596702385
218	0x4021b3559c3d0560	8.850262529801228
219	0x40214583205e180a	8.635766040311882
220	0x4028fffefaae31fe	12.499992212070534
221	0x4021c354fbfc8fe8	8.881507753925646
222	0x4022e61e4433470b	9.449449664363348
223	0x4028ffc062f0f115	12.499514667426903
224	0x40220724d8b90a87	9.013952992046383
225	0x4020a776948b08c7	8.327076570484122
226	0x4028291462d89e05	12.080233658735787
227	0x4022f88b580e6d99	9.485438110123868
228	0x4021476949a5875c	8.639475156265398
229	0x4028f0a661ebb030	12.47001939775518
230	0x4020b248588b3f95	8.348208205221264
231	0x4020eb61bbc6246a	8.45973002237061
232	0x4028fffc5437f138	12.499971992329492
233	0x40212c4cb21d31d2	8.58652264219646
234	0x4020b0bad02292e7	8.345175270290794
235	0x4028f03f079bb264	12.469230878597223
236	0x401f235a11aeb7e7	7.784523273743594
237	0x3fe0ca0170437680	0.524658889069272
238	0xc017c2b62df76abd	-5.940148084856159
239	0xc019908ca04ab073	-6.391161446150465
240	0xc029000000000200	-12.50000000000091
241	0xc02900000000079b	-12.500000000003459
242	0xc02900000000001a	-12.500000000000046
243	0xc010302160c77d26	-4.04700232713302
244	0xc01740c8b2c3decd	-5.81326560326097
245	0xbffc98995aad9e35	-1.7872556249730114
246	0x4022772af38fa5c0	9.232749568257418
247	0x4028fffff32db72d	12.499999617891797
248	0x40215e77a7f9b3a8	8.68450665400617
249	0x4020dae394f70ab7	8.427517562061764
250	0x40285b0268d39500	12.177752757861981
251	0x401ea888307fa036	7.664582021512663
252	0x401cd66504426584	7.2093697228932605
253	0x4028fffffc3b6f30	12.499999887709777
254	0x4015ca67f83b2b6a	5.447662237750459
255	0x4002fe7b0cff39b6	2.374258138216841
