model.npy (npy, 1496 bytes, 1 tensors)

array f8 [57, 3]
-3.793190607898694 2.3603277018906477 2.500000421767106 6.78253261626716 11.861682139349153 9.092406175055302 8.512009753774647 12.192379646966643
8.645438395597006 8.473699095874823 12.49967952350266 8.587246944235579 8.65541206440362 11.665363697534257 9.19882083532084 9.752649386480535
12.371781098548578 8.789131174440037 9.04249961406143 12.380056415278746 6.979703660666394 -12.765828205512609 -13.098478871996559 -12.500000000000046
-10.338463512414561 -9.895115855783784 -6.55255621347168 9.365085061194648 11.65218437188913 8.61466481674882 9.0834272115349 10.893808093948405
8.491972644281315 8.440281530479423 12.49999624164921 8.636151135273531 8.39023106611975 12.497819355574388 9.128324753329922 8.360601378794687
12.49998888434348 6.743865087513543 2.354488607128374 11.86260816179509 8.349787349347512 -3.907936470789486 -6.924194612238568 -8.446654456959596
-9.270568138910578 -8.694016905856449 -4.1901154013771755 8.656874021454911 11.166607798596626 8.29920460702862 10.119502135381747 12.478338950858248
8.545319076524331 8.301264320392796 11.217879377943149 8.596938457536854 9.23911657392672 12.499999968443817 8.072946335537258 2.2961871437950103
11.46746683541046 8.92514002053803 6.688464964846323 12.387820193355598 8.975334278946539 -0.9794866326055377 -3.200626592607635 -6.084969079908756
-10.285956350332729 -9.631675303097916 -8.127205947903336 8.47039291709319 11.629194353994354 10.319712195301662 8.67793528454549 12.072668073440022
8.185276322077511 8.451565718667897 10.486347299319368 7.8903661073786715 2.293268366347816 12.070219800702603 8.777103146252845 7.2007261693835165
11.876232108367347 9.724679066933893 8.671161167836642 12.16090655278324 8.621066596447795 -1.5104570663517678 -3.8441237028230533 -5.242031393014271
-9.8457186547716 -8.685125517277134 -7.01983659419898 8.464837777053042 12.317677132384304 9.11650285120231 9.603334340478108 12.496641171549761
7.74797063818264 2.4290695103629227 12.477342285123209 8.332297579443996 6.598026768097151 12.092629598246647 10.149817834856211 8.931658174724205
12.499794686980641 8.375262891854684 8.433735111024935 11.800694376855036 8.140447847781676 -1.4199925687598993 -3.9664481446535 -4.010794831301231
-12.499999999999977 -12.499999999999977 -12.503081453744924 9.722127951848659 11.287418668086223 8.839504040913917 2.386470358498779 12.491160542911473
8.502843191203459 5.898286519733767 12.276392738289417 8.913448330430475 8.395467246621383 12.380290030642332 8.437647963396294 8.847311680491543
12.227363771714966 8.229665316943876 9.089315773518399 12.451238231383584 9.652406328238518 9.435248476036472 11.804739874910457 8.14996869133095
-12.163193000515435 -12.156384265629384 -12.212189027733602 2.4892513035700263 12.499931806676978 8.88334187467555 6.925604546928914 12.201820709668086
8.691606808423597 8.316196700018095 12.190347091950645 8.892623012866984 8.435538009530461 11.8331990191694 8.384506193021483 9.150520125326134
12.490025352304315 9.415477326396164 8.380643960778663 12.279153631009212 8.377001217289575 1.1813725088512992 -3.0750246241602865 -4.560598128667545
-12.500000000000046 -12.554448624851752 -12.623502979972677
00000000: a05a 4351 7458 0ec0 92b4 7b7d f3e1 0240
00000010: b3ce 9b38 0000 0440 deae eb3a 5021 1b40
00000020: 961a c066 2eb9 2740 389f b7dc 4f2f 2240
00000030: e763 7724 2606 2140 8846 c895 7f62 2840
00000040: fd57 c1e6 764a 2140 b1da 19b0 88f2 2040
00000050: 7ed9 97fe d5ff 2840 e355 a8a1 ab2c 2140
00000060: e808 8c2b 924f 2140 e6b5 f18c aa54 2740
00000070: cdee 32d8 cb65 2240 a493 a842 5b81 2340
00000080: fe12 9717 5abe 2840 b4f2 5400 0994 2140
00000090: 12f9 6882 c215 2240 b183 24c1 96c2 2840
000000a0: a755 b96f 37eb 1b40 e20f 72a2 1a88 29c0
000000b0: f624 9dd2 6b32 2ac0 1a00 0000 0000 29c0
000000c0: 6f6b e916 4bad 24c0 df71 1da0 4cca 23c0
000000d0: f63f c84b d135 1ac0 a82d dc6d ecba 2240
000000e0: c573 281c eb4d 2740 43e0 cb58 b53a 2140
000000f0: 1a47 b2f8 b62a 2240 26d1 e836 a1c9 2540
00000100: 066e a3d6 e3fb 2040 47e2 ac94 6ce1 2040
00000110: 3603 e481 ffff 2840 4da0 029a b545 2140
00000120: 2ebc c55d ccc7 2040 fd03 b72d e2fe 2840
00000130: 79a3 35c8 b341 2240 a2a1 71be a0b8 2040
00000140: d03c 058b feff 2840 0207 fec4 b7f9 1a40
00000150: 205e 731f fed5 0240 5d58 e8c6 a7b9 2740
00000160: 1201 d453 17b3 2040 8e17 4732 7443 0fc0
00000170: f3d0 8a12 60b2 1bc0 1a82 9ae4 afe4 20c0
00000180: c9eb 37e8 878a 22c0 930c 132f 5663 21c0
00000190: 0686 9d9c adc2 10c0 507b afca 5150 2140
000001a0: 4e76 0c9e 4d55 2640 3c00 a458 3199 2040
000001b0: 9688 4662 2f3d 2440 a2ad ccd7 e8f4 2840
000001c0: 251d df0f 3417 2140 d413 2751 3f9a 2040
000001d0: 307a c5e2 8d6f 2640 e2b0 e1ea a131 2140
000001e0: c7e4 d17c 6d7a 2240 38ef f0fe ffff 2840
000001f0: bbfd da38 5925 2040 02c3 805d 975e 0240
00000200: e71a 24d0 57ef 2640 fcdc e8f3 abd9 2140
00000210: b5d3 b1f5 fcc0 1a40 a261 4e5e 90c6 2840
00000220: 7b7c bd03 5ff3 2140 531e bd59 f457 efbf
00000230: 63a9 6f1d e29a 09c0 6c84 6d22 0257 18c0
00000240: 7286 e9de 6892 24c0 2dfe 00f2 6a43 23c0
00000250: f933 5423 2141 20c0 de5e 2657 d7f0 2040
00000260: 9a77 2ac3 2542 2740 f0e7 1d51 b1a3 2440
00000270: cbda 6755 1a5b 2140 c5c6 edbf 3425 2840
00000280: 9717 c089 dc5e 2040 c258 339f 33e7 2040
00000290: 3326 6283 02f9 2440 04a2 0222 bc8f 1f40
000002a0: 5d52 d315 9d58 0240 4019 87d9 f323 2840
000002b0: a28c ad76 e08d 2140 72d0 3329 8bcd 1c40
000002c0: 2849 b27e a1c0 2740 5b27 7922 0973 2340
000002d0: 3768 c46f a257 2140 0dd5 fb57 6252 2840
000002e0: 3bc3 e070 fc3d 2140 1ae3 5f07 d52a f8bf
000002f0: 3d3a 8bed c3c0 0ec0 0e68 d613 d7f7 14c0
00000300: e7b8 1709 02b1 23c0 83b8 94c5 c85e 21c0
00000310: 0365 4d0b 5014 1cc0 bcc6 9437 ffed 2040
00000320: 288e bc93 a6a2 2840 fe9b ff42 a63b 2240
00000330: 7dd0 193d e834 2340 844e 6bc0 47fe 2840
00000340: 6473 d503 ecfd 1e40 82c1 d5fe bb6e 0340
00000350: 4534 3f35 66f4 2840 fc80 88e8 22aa 2040
00000360: 7a70 0c21 6164 1a40 d138 8e25 6d2f 2840
00000370: 4221 5aec b44c 2440 a8fb de4c 02dd 2140
00000380: c397 d616 e5ff 2840 25d6 2f75 22c0 2040
00000390: 43f5 4987 12de 2040 f15d 059d f499 2740
000003a0: 2208 c2c7 e847 2040 5430 b620 4ab8 f6bf
000003b0: 8588 342a 49bb 0fc0 569e ddcc 0d0b 10c0
000003c0: f3ff ffff ffff 28c0 f3ff ffff ffff 28c0
000003d0: ff1d 6ee4 9301 29c0 566f 41c1 ba71 2340
000003e0: 6361 278a 2893 2640 952b 4179 d3ad 2140
000003f0: 5601 75c5 7d17 0340 e0c7 0965 79fb 2840
00000400: 6378 aaa9 7401 2140 d9c6 e26b d897 1740
00000410: 209c 5759 838d 2840 c391 e37f afd3 2140
00000420: 8ac1 d5ae 7aca 2040 1235 f95f b5c2 2840
00000430: 6ce5 d364 13e0 2040 c075 2ad6 d2b1 2140
00000440: 3a9f 3706 6974 2840 4e99 42b1 9675 2040
00000450: 938e 0ccc ba2d 2240 a8fe 8cb2 08e7 2840
00000460: cbf9 c633 084e 2340 c56b 64e3 d8de 2240
00000470: 1a0e 69dd 069c 2740 7561 41b2 c84c 2040
00000480: c04c 7008 8e53 28c0 70f9 3499 1150 28c0
00000490: 295f 4d0a a46c 28c0 7ade 6296 fce9 0340
000004a0: cdd0 cf0f f7ff 2840 6fd6 dd62 45c4 2140
000004b0: b55a a8ad d1b3 1b40 215c 470b 5567 2840
000004c0: 96bd 9f49 1a62 2140 975c ab88 e4a1 2040
000004d0: 2aa2 8d2c 7561 2840 64d7 2fe2 05c9 2140
000004e0: 5032 86d6 fede 2040 a1c8 d40f 99aa 2740
000004f0: 0246 e8fe ddc4 2040 c554 4ff9 104d 2240
00000500: 40b7 5c9a e4fa 2840 bc33 b271 b9d4 2240
00000510: b4ed e5c3 e3c2 2040 0a7d 8739 ed8e 2840
00000520: 309f b54d 06c1 2040 8b8e 1edc e6e6 f23f
00000530: 134e 9982 a699 08c0 ba4d 936f 0d3e 12c0
00000540: 1a00 0000 0000 29c0 d419 aeb0 e01b 29c0
00000550: e4e1 57c8 3b3f 29c0
